(capstone_2023) [cchou@workergpu089 code]$ python3 model.py
cuda
AlexNet(
  (conv1): Sequential(
    (0): Conv2d(3, 64, kernel_size=(11, 11), stride=(2, 2), padding=(5, 5))
    (1): BatchNorm2d(64, eps=1e-05, momentum=0.1, affine=True, track_running_stats=True)
    (2): ReLU()
    (3): MaxPool2d(kernel_size=3, stride=2, padding=0, dilation=1, ceil_mode=False)
  )
  (conv2): Sequential(
    (0): Conv2d(64, 128, kernel_size=(7, 7), stride=(2, 2), padding=(3, 3))
    (1): BatchNorm2d(128, eps=1e-05, momentum=0.1, affine=True, track_running_stats=True)
    (2): ReLU()
    (3): MaxPool2d(kernel_size=2, stride=2, padding=0, dilation=1, ceil_mode=False)
  )
  (conv3): Sequential(
    (0): Conv2d(128, 256, kernel_size=(3, 3), stride=(1, 1), padding=(1, 1))
    (1): BatchNorm2d(256, eps=1e-05, momentum=0.1, affine=True, track_running_stats=True)
    (2): ReLU()
    (3): MaxPool2d(kernel_size=2, stride=2, padding=0, dilation=1, ceil_mode=False)
  )
  (conv4): Sequential(
    (0): Conv2d(256, 512, kernel_size=(3, 3), stride=(1, 1))
    (1): BatchNorm2d(512, eps=1e-05, momentum=0.1, affine=True, track_running_stats=True)
  )
  (classifier): Sequential(
    (0): Linear(in_features=12800, out_features=512, bias=True)
    (1): ReLU()
    (2): Linear(in_features=512, out_features=50, bias=True)
  )
  (softmax_final): Softmax(dim=-1)
)
AlexNet created
Dataset created
Dataloader created
Optimizer created
Starting training...
Epoch 0 Average loss 3.832960834208223 Time taken per epoch 32.726534366607666
Accuracy tensor(0.1836, device='cuda:0')
Epoch 1 Average loss 3.7663359568291104 Time taken per epoch 32.03035879135132
Accuracy tensor(0.2227, device='cuda:0')
…
